model/save/model.pth (torch, 22836 bytes, 6 tensors)

fc_layer.0.weight f4 [64, 42]
00000000: caa6 f43d e056 e9bb c826 523c 1a73 d53b
00000010: c651 05be ee2a 41be de3a a23c 14fb 22be
00000020: 9bd2 c939 7c4d 19be 382e 173d 5872 05bb
00000030: 8551 96bc 3c43 8d3d eaac 363e 88bc e8bd
00000040: 0eb0 48bd b2df dfbd 11cf 90bd 2072 1bbe
00000050: 1601 6a3c 3359 c4bd 9645 4bbd fe3b 88bd
00000060: 7d8d 19bd baa3 fd3d f81e 32bd 2cf7 3dbe
00000070: 694d ae3d b542 41bd fffe 113e a2af d03d
00000080: 1222 243e 7c5e debd 64e8 e63d 7c1a 963d
00000090: 98b9 58bd df0f e83d 5241 133e 85e7 a53b
000000a0: 1c9a d13d 1ffc 3cbd 92cf 09be 84c3 1f3d
000000b0: 900b 083d 614a e8bd 611d 563d 82c1 1cbe
000000c0: 50d2 d63d 8d48 f93d a3f2 5b3c 1575 03be
000000d0: 0566 7a3d e3e0 953c 402e 133d c45d 4e3d
000000e0: 6484 1a3e 9449 70bd a1e6 ee3c 952d 5e3d
000000f0: 6dce 1d3c 6cfe ff3d 350d bcbd 4fdb 253c
00000100: dd77 b33c 8e7d 6abc e4ff be3d f545 413d
00000110: 58b8 14be de03 12bc a6ae a2bd 21de 113d
00000120: 2abf c5bc 4fd8 febd 719f 17bd c6b3 823c
00000130: 0b2f 36bd bd46 1e3e 7ebe 0fbd 2b99 f93d
00000140: aeaf 2a3d 227e d3bd 08bf 273d 064d 203e
00000150: 5ab4 cebd 5843 ccbd 15bc 193e b054 073e
00000160: 48a6 b8bd b684 de3d 731c d5bc 708b 05be
00000170: cbf4 9f3b b19a 9c3d 9bf6 6fbd cd79 863d
00000180: 4f62 16be 86db f53d ce34 f73d ed7f c53d
00000190: 308a 8d3c 3e1e 7a3d dd92 00be b3cf 00bd
000001a0: 1d13 fabc 81b4 9ebd 75d6 ffbd 8a2f e33d
000001b0: fff5 c23d 5d33 09be c19c 0e3d e3a8 843d
000001c0: 0e42 053e b17c bd3d 771e 053e 9350 43bd
000001d0: e234 c83d 13a8 023e 9b74 23be c1ec 01be
000001e0: 6307 823c 84a1 a83d c93a b5bd 5827 813c
000001f0: 2ea7 2dbc c06e 1a3d 42cf a9bd 6a3e b23d
00000200: da48 f53d c6f6 98bd 09fe f53c aa42 7d3d
00000210: f854 a53d b851 673e c2f8 943d 33e8 813d
00000220: e236 313e 6c70 93ba 48f7 5abc 0c95 5d3d
00000230: 08ca b4bd b448 543d 078b 9bbd ed1b 4d3d
00000240: f8f4 133d 832f 723d ab7d e7bd db0d 01be
00000250: 736a ad3d bbc8 173e 2b8f ffbd e79d 953d
00000260: 3ab1 d7bd 0a2c c33c 434d 153e d494 ec3d
00000270: 6b6e e5bd b217 c13d 9273 a63d 190a 8c39
00000280: 9c83 153e 4285 93bd ecbd 2abd d734 cabd
00000290: 6413 883c aea8 c83c cc51 eb3b 038c cabd
000002a0: 3242 8ebd 44fc 563d 5e18 b2bd ad54 e7bc
000002b0: da42 a63d 234e f5bd 66be fe3d 3f53 d1bd
000002c0: 5a8a 263e efc6 05be 9b0c 29bd 41d6 babd
000002d0: 2864 ae3d fb8a 1bbe fd35 babd 5867 d23d
000002e0: 0817 3bbe 554a 3c3e 3210 c53d c875 acbe
000002f0: f714 85bd 6d74 6cbe 4129 2a3e 46ac 393e
00000300: 6bdb 453d 74b1 7b3e 794d 79bd c66a adbe
00000310: 5cdd 893d f462 aabd 0d46 2f3e 28b7 1cbd
00000320: 138c 0e3e c84c 733d 26a7 9b3d 61f9 a3be
00000330: 2019 da3d a890 87be a602 f23d 9902 8ebd
00000340: 77f5 25be 954d 62bc a0a5 00bd a7eb 0dbe
00000350: 4c83 81bd 8a63 2b3d fe14 bf3d eafe 2e3b
00000360: 9d28 2c3d 600c ba3d c4d2 71bd 6e5c f53d
00000370: 202f 0fbe 9fe5 cfbd e5b6 09be fcf5 2abe
00000380: 495d 57be 92f5 b4bb 89b9 8ebe ee41 1fbd
00000390: 86df adbd 48d5 0e38 3125 39be d6cf 04bb
000003a0: de6f f5bd e65d b03d 39a6 a1bd 7fd4 d83c
000003b0: eb9a 01be a3a4 e2b9 7402 4dbe 8b43 7abc
000003c0: 9e0a f4bd 6962 973d dd0b 8bbd 9f26 373e
000003d0: 7d50 c8bd 16d7 08be e5bb 68bd 5b9e 16be
000003e0: 612a 1fbe 30f5 80bd 50cd 4abe 9346 12bd
000003f0: 0f32 113e 6ae7 b43d c558 0c3d 1a5d 313e
0.11945875 -0.007120952 0.012826629 0.0065139653 -0.13019475 -0.18864033 0.01980346 -0.15916091
0.0003849462 -0.14970964 0.036909312 -0.0020362344 -0.018349418 0.068975896 0.17839399 -0.113640845
-0.048996024 -0.10931338 -0.07070745 -0.15180254 0.0142824855 -0.09587326 -0.04962691 -0.066520676
-0.03748845 0.12384744 -0.043486565 -0.1855132 0.085108586 -0.047182757 0.1425743 0.10189749
0.16028622 -0.10857865 0.11274794 0.0732927 -0.05291137 0.11331152 0.14380386 0.0050629997
0.10234472 -0.04613888 -0.13458088 0.039004818 0.03321415 -0.11342312 0.05227411 -0.15308192
0.10489333 0.12172041 0.013424548 -0.12837632 0.06113245 0.01829571 0.03593278 0.05038239
0.15089566 -0.05866392 0.029162707 0.05424269 0.009631735 0.12499699 -0.091822065 0.010123088
0.021907741 -0.014312161 0.09326151 0.047185857 -0.14523447 -0.008912055 -0.07943468 0.03561223
-0.024139006 -0.12443601 -0.03701729 0.015954863 -0.044478457 0.15456672 -0.035093777 0.121874176
0.041671447 -0.10326792 0.040953666 0.15654382 -0.10092993 -0.09973782 0.15013154 0.132159
-0.09016091 0.10865156 -0.026014542 -0.13041472 0.0048814765 0.076466925 -0.05858479 0.065662004
-0.14685939 0.120047614 0.120706186 0.096435405 0.017277807 0.061063997 -0.12556024 -0.031448077
-0.030526692 -0.07749272 -0.12492076 0.11093052 0.09519576 -0.133985 0.03481746 0.06477525
0.13013479 0.092522986 0.12999903 -0.047684263 0.097757116 0.12759428 -0.1596245 -0.1268797
0.015872663 0.08233932 -0.08849103 0.01576583 -0.010598941 0.037703276 -0.082914844 0.08703311
0.11976786 -0.07468943 0.03002836 0.061831154 0.08072847 0.22589767 0.07274009 0.063431166
0.17306092 -0.0011248714 -0.0133646205 0.05409722 -0.08827597 0.051827148 -0.07594877 0.05007546
0.036122292 0.059127342 -0.11303266 -0.12602942 0.08467569 0.14822666 -0.12478479 0.07305508
-0.1053185 0.02382471 0.14580254 0.11551824 -0.11202701 0.09428348 0.08127512 0.00026710404
0.14600986 -0.07203151 -0.04168503 -0.0987336 0.016610809 0.024494495 0.007181382 -0.09889986
-0.069462195 0.052486673 -0.08696054 -0.028238619 0.0811822 -0.11977794 0.12438659 -0.10220956
0.16263714 -0.13064168 -0.041271787 -0.09122897 0.08515197 -0.15189736 -0.09092329 0.102736175
-0.18270504 0.1838773 0.0962223 -0.3368361 -0.06498139 -0.23091288 0.166173 0.18132123
0.048304956 0.24579412 -0.0608649 -0.33870524 0.06731674 -0.08319655 0.17116566 -0.03826061
0.13920622 0.059399396 0.076002404 -0.32026199 0.106493235 -0.2647755 0.118169114 -0.06934089
-0.16206919 -0.013812442 -0.031407952 -0.13859425 -0.06323871 0.041842975 0.09330176 0.0026702234
0.04203092 0.090843916 -0.059038892 0.1198052 -0.1398282 -0.101512186 -0.13448675 -0.16695398
-0.21031679 -0.0055224383 -0.27875927 -0.038881235 -0.08489899 3.4054072e-05 -0.18080594 -0.0020265481
-0.119842276 0.0861166 -0.078930326 0.026468514 -0.12656753 -0.00043228743 -0.20020467 -0.015274893
-0.119160876 0.07391817 -0.06789372 0.17885827 -0.09780977 -0.13363299 -0.056819815 -0.14708845
-0.1554351 -0.06296766 -0.19804883 -0.035711836 0.14179252 0.08833201 0.034264345 0.17320672

fc_layer.0.bias f4 [64]
00000000: b412 ca3d 0554 2c3d 3fbd 96bd b2bb 4e3d
00000010: 14bb 79bd 5e3a 80bd 56fe 93bd 7dcb 523e
00000020: df78 b5bc 52f7 9ebc ee08 d73d 634b d43e
00000030: 7165 233e 0cce 9fbd 6b77 613e c824 d9bd
00000040: 01e6 9e3d 57a3 733e b891 923e ae91 87bd
00000050: 7ab9 12bd 1c4f 593e 4da5 5d3e 6975 97bd
00000060: fc01 793e 1638 97bd 7bec 013e 9d6a 733e
00000070: d073 123e cbe3 4e3d 507f d1bd 4bed 7abd
00000080: 5ef6 183d c222 a03c 9e25 873e a071 0d3d
00000090: 13fb 2b3e 17fd 16be f7ba d3bd be16 e6bd
000000a0: f4d6 dabc b0c1 5f3d 3761 c23d 5b46 9a3e
000000b0: 248f 453e 2b6c 5f3e 1ae7 a63c 15bf a83d
000000c0: d93b e73e 87d1 14be de37 403e e0a6 573b
000000d0: 7a1e 7abd e77d 813e 1225 efbc 8c27 a93e
000000e0: 37dd f43e 982a ec3d 117c 9f3e 775f 73bb
000000f0: 905c 90bd 83df 173e a38f 2e3e b04c 81bd
0.098668486 0.042072315 -0.073603146 0.05047197 -0.060969427 -0.06261133 -0.07226245 0.20585437
-0.022152362 -0.01940504 0.1049975 0.41463766 0.15956666 -0.07802972 0.2201821 -0.106027186
0.077587135 0.23792778 0.286268 -0.06619583 -0.035821415 0.21221584 0.21645088 -0.07395441
0.24317163 -0.073837444 0.12687866 0.23771138 0.14301991 0.05051021 -0.10229361 -0.061261456
0.03734433 0.019547824 0.26395887 0.03453219 0.16794996 -0.14744984 -0.10338395 -0.112348065
-0.026713826 0.054628074 0.094911985 0.30131802 0.19292885 0.21818607 0.02037387 0.08239571
0.45162848 -0.14533053 0.18771312 0.0032905862 -0.06106422 0.25291368 -0.029192481 0.33037984
0.47825024 0.115315616 0.31149343 -0.003713576 -0.07048905 0.14831357 0.1704698 -0.06313455

fc_layer.2.weight f4 [32, 64]
00000000: 5ce2 de3d d656 013e 858b 63bd 2e30 b33d
00000010: f300 843e 7934 0e3e d182 a9bc fab9 153e
00000020: e577 513d bb9f 5dbd 1db0 91be 47b0 1f3f
00000030: 4d2e 773e 3136 b9bd 72af b43d 5688 133d
00000040: 6f0b 443d c12b 9e3e 4214 0abd 0b52 78be
00000050: aa61 7c3d 38cc 71bd 41d0 903d b08f 8dbd
00000060: fb3c be3e 19e2 15be 503c c73d b262 793e
00000070: 37c3 e9bc e0dc 8a3d 3621 ef3c f918 dabd
00000080: 1560 983d 60d4 15bc 58f7 d1bd 6c9e 3f3e
00000090: 259a 9f3e 2ae0 733d c8d3 fdbd 0d63 433c
000000a0: c7bb 173d ebb7 c63d f6f6 25be 5116 6c3e
000000b0: 40c3 883c 794f 023e 1d0a d93d 9a83 123d
000000c0: 9348 b03d 0bde 0a3e 49c0 9b3d e3f1 ac3e
000000d0: 64b8 b83d d71d 4c3d e65b c8bc 8f5e b43e
000000e0: b1b5 8b3e 414f 3fbe e572 443c b805 d2be
000000f0: caac 80bd 94dd 2c3e bf15 e43d 5321 92bc
00000100: 59a5 6d3d 6c4e 813b 2724 033d a52c 03bd
00000110: 1174 ab3c f76c 09bd 583d 323e 3bf5 4b3e
00000120: 1b93 abbd 1f1b 4c3c fca5 1fbe b072 5c3e
00000130: c8e4 243e 740e 073c 4d26 dcbd 7f4c edbd
00000140: 92e6 25bd fa2a d23d e946 78be 0cc3 8dbc
00000150: f388 6c3d 5358 a43d cb01 233e 0e13 31be
00000160: 8e82 d83d ad05 96bd cb8a 013e eeb8 c53d
00000170: 40f4 87bd 45dd a33d b79e bbbd 0113 b33d
00000180: 5770 133e 4cda 513d 5de5 80be dd43 c8bd
00000190: d6f1 1d3e eb28 a93c 50d0 f63d ef3c b0bd
000001a0: b8e0 26bd 3899 9e3c 5930 2bbd b43c 883d
000001b0: 4578 4d3d a5d7 f9bd 72ec c23d 457e 263d
000001c0: 221f 82bd e9fe 883e 10ac 6d3d 3bf1 6f3e
000001d0: 4cfd a13c 3784 a03e cd84 22bd e98d 4b3d
000001e0: ad02 eebd 9e61 173e aa2e e0bd d855 8abd
000001f0: 96f1 70bd 55e0 02bd 0521 803e 2bb7 d8bd
00000200: 72c2 133c fbb0 213d 7b78 5e3d 90cb 033e
00000210: bafa 16be b421 1abd 92b8 183e 1650 56be
00000220: 0d65 da3d d2c8 32bc 834c b53e 3127 03be
00000230: 7417 35bc fe6e c23d 4aae cbbb 4851 163d
00000240: 7e02 b33d e1ad e9bd 72d9 ff3d 1904 8d3d
00000250: 9d81 7cbc 231a 9a3d 0b82 e93d d4f4 eebd
00000260: c2fe 8c3c 048a 883e 8b63 fb3d 7af9 36be
00000270: 13aa 5e3d 8a71 1ebe 37fe 9cbd b9a5 d3bb
00000280: d5e3 a5bd e935 d73d 35f8 1c3e bf8c 073d
00000290: d623 0abe a4a0 ae3b 4a39 58bd ccf7 ee3d
000002a0: d579 f13d ea66 053e e5d1 d83d 482d 26bb
000002b0: 49d1 2fbe 9452 553d 3efa 143d ec58 74bd
000002c0: 0313 9bbc 5ec0 28be ea94 c33d 6a46 2cbe
000002d0: 4945 ccbd d3c2 b63e 29f4 02bd 55e8 52be
000002e0: 6da9 403c 3737 1a3e 8fb3 153d a9b0 003f
000002f0: 9645 fe3c 7a0e d9bd d4c0 953e 2357 6f3b
00000300: 8eec 9cbd 905b 1b3d 5084 78bc 8cdb bdbd
00000310: 4615 843c db69 f7bc 08fe 52bd 8c0b 7bbd
00000320: 08e3 59bd 4057 4fbd b3ef 253c 78ad ea3d
00000330: 8c60 9abd b0db 6ebd 2f5c adbd e06c 9bbb
00000340: e097 0f3c 9ff6 b3bd 9aea 673d 3fea e9bd
00000350: d2c5 ea3d aac7 ba3c ddc9 8cbc ea98 37bd
00000360: f164 583d e440 b73d 27a5 acbd 1e3c 0bbd
00000370: 74c1 b83d 0519 c7bc 44eb bcbd cab3 24bd
00000380: 1923 1338 59f1 c6bc 82b5 b3bd 39d5 a0bd
00000390: 5aa7 de3c e0a6 af3d 60c4 e63d ffb3 6fbc
000003a0: cbf3 423d 1252 cbbd e03d 873d 4b50 f03d
000003b0: c6e7 833d d172 4ebd 5a21 cb3d ae73 f2bd
000003c0: e6c2 7fbc 9d95 05bd f859 ffbd 0f72 97bd
000003d0: 11ae babd 17f2 e53c f383 44bc c00d 653d
000003e0: 4f13 02bd abcc cf3d bd08 543c 3d7e cf3d
000003f0: d302 cf3d 2efa d8bd 7569 b6bd 1632 9a3d
0.108830184 0.12630782 -0.055552978 0.08749424 0.25781974 0.13887204 -0.020692261 0.14621726
0.05113973 -0.05410741 -0.28454676 0.6237835 0.24138756 -0.09043539 0.08822526 0.036018692
0.047862466 0.30892757 -0.033710726 -0.24250047 0.061616577 -0.05903265 0.07070971 -0.06912172
0.371559 -0.1463703 0.097283006 0.24354056 -0.028535469 0.0678041 0.02919064 -0.106492944
0.07440201 -0.009144872 -0.10252255 0.18712777 0.3117229 0.05953995 -0.1239391 0.011925471
0.037044313 0.09703048 -0.1620749 0.23055388 0.016694665 0.12725629 0.10597632 0.035770036
0.086075924 0.13561265 0.07605035 0.33778295 0.09019545 0.049833145 -0.024457883 0.35228392
0.27287057 -0.18682577 0.011990284 -0.41019988 -0.06282957 0.168814 0.1113696 -0.017838156
0.058019016 0.003946116 0.0320169 -0.032025 0.020929368 -0.033551183 0.17406213 0.19917767
-0.083776675 0.012457638 -0.15590662 0.21528125 0.16102898 0.008243192 -0.10749493 -0.11586856
-0.040503092 0.102621034 -0.242458 -0.01730492 0.057747792 0.08024659 0.15918653 -0.17292425
0.10571776 -0.07325301 0.12650602 0.09654413 -0.06638384 0.08001188 -0.09161132 0.08743859
0.14398323 0.051233575 -0.2517499 -0.09778569 0.15424284 0.020649394 0.12051451 -0.08605372
-0.040741652 0.01936017 -0.041794155 0.06652203 0.050163526 -0.12199334 0.095177546 0.040647764
-0.06353594 0.2675698 0.05802542 0.23431866 0.019774102 0.31350872 -0.03967743 0.049695883
-0.11621604 0.14783332 -0.109464005 -0.06754655 -0.058824144 -0.03195222 0.25025192 -0.105818115
0.009018527 0.039475422 0.054314118 0.12870622 -0.14744082 -0.037629798 0.14914158 -0.20928988
0.10663805 -0.010912137 0.35409936 -0.12807919 -0.011052955 0.09493826 -0.0062158452 0.03669861
0.0874071 -0.11410118 0.12492646 0.06885547 -0.015411762 0.075245164 0.11401757 -0.11667791
0.017211322 0.26667798 0.12274846 -0.17868605 0.054361414 -0.15472999 -0.07665675 -0.0064589647
-0.08100096 0.105083294 0.15329058 0.03309321 -0.13490233 0.0053292084 -0.05278901 0.11668357
0.11790816 0.1302754 0.10586909 -0.002535658 -0.1716968 0.052080706 0.036371462 -0.059655115
-0.018929964 -0.16479632 0.095498875 -0.16823736 -0.099741526 0.35695514 -0.03197113 -0.2059644
0.011759144 0.15060125 0.036548194 0.5026956 0.03103904 -0.10598464 0.2924868 0.0036520443
-0.07662307 0.037929118 -0.0151682645 -0.09270391 0.016123425 -0.030201843 -0.051511794 -0.06129031
-0.05319503 -0.050620317 0.0101279495 0.11458868 -0.07537946 -0.05831498 -0.08464848 -0.0047432035
0.008764237 -0.087872736 0.056620218 -0.11421632 0.114635125 0.022800285 -0.0171861 -0.044823565
0.05283064 0.08947924 -0.08429938 -0.03399288 0.09021273 -0.024303922 -0.09224561 -0.040210523
3.508022e-05 -0.024285005 -0.08774854 -0.07853169 0.027179409 0.08576751 0.11267924 -0.014630317
0.04759578 -0.09927763 0.066035986 0.11734065 0.06440692 -0.050402466 0.09918471 -0.118384704
-0.015610432 -0.032613385 -0.12468332 -0.07394802 -0.09115232 0.028069539 -0.01199435 0.055921316
-0.031756695 0.10146459 0.0129415365 0.101315 0.101079606 -0.10594593 -0.08906833 0.075290844

fc_layer.2.bias f4 [32]
00000000: 9bbb 983e 5d7a 94bb 0b00 723e 9049 c1bd
00000010: 8459 c43e bb28 253e 5406 16bd ef47 093e
00000020: 541a 11bc 5eef c7bd e697 563e 4340 5fbb
00000030: 3bbc a83d 636e 17be b65d be3d 517f 4ebd
00000040: 0510 fabd 1471 043e 563e c63c 7523 03bd
00000050: d9b3 e1bd 6b4c 0abe ba79 423e b48e 463e
00000060: e07a 953e df50 053c 432a e23d 2123 a3bc
00000070: 34de 4e3e afe4 27bd 2ad2 723e a1a5 323e
0.29830632 -0.0045311884 0.23632829 -0.09437859 0.38349545 0.16128819 -0.03662713 0.13406347
-0.008856375 -0.097624525 0.20956382 -0.0034065403 0.08239027 -0.14788203 0.09295218 -0.050414387
-0.12210087 0.12933761 0.024199646 -0.032016236 -0.11020631 -0.13505714 0.18991747 0.19390374
0.2919531 0.008136957 0.11043217 -0.019914212 0.20201951 -0.040989574 0.23712984 0.17445995

fc_layer.4.weight f4 [8, 32]
00000000: e6dc 66bf 28fa cbbd a5e1 1c3f 1602 bf3d
00000010: a434 00bf c892 903e 6e31 033e cea8 963e
00000020: 87e3 a6bd f9bf 1a3e 9061 a2bd 05ba c8bc
00000030: 97fb c13e 4539 59be 70c0 fabe 7330 98be
00000040: c857 cebd 4d12 5abd bc00 e6be a80c b7be
00000050: 1475 c13b ba08 cdbd 01a0 15bf 136d 393d
00000060: a7bf 49bc f790 b2be dff2 bd3e f82d d6bd
00000070: 6d3d 5dbd 8e91 26be e265 e6be 486d 363f
00000080: 629c 193e 8a8c 02bf 9bed 7ebe 73da 8fbc
00000090: 741e 17bf 5b6c e9bd 5fd0 4cbc 788f 833e
000000a0: 6995 a13d c47f d43d eea0 603f 8fc6 8ebe
000000b0: 6756 54be 1a4b 153e f6b9 f43e c420 543d
000000c0: 5384 ec3d da11 ea3e d88a 653f 8702 c73e
000000d0: 806a 13be 543f 2bbe 7ae6 2abf 1f14 5a3e
000000e0: 2e9d 123e bee1 2d3e 7a11 0dbf efc5 efbd
000000f0: 09f3 3b3e 6097 1b3e b440 4dbe ae60 2dbf
00000100: 24a0 c23e cd38 c93e 5dbc 32be cf86 c2bd
00000110: 4e3f 853e b225 0ebf 9075 0d3e 8e00 3ebe
00000120: 59a8 30bb 5ddf e3bd e59d 70bf 4d4a 71bd
00000130: c681 3bbe 2a5d d9bd 78b9 8a3e 0945 093e
00000140: a1c8 9c3c 6ca4 cdbe 131e ecbe 6145 d4bd
00000150: 7102 983d c078 27be 1712 7c3f 0793 203e
00000160: c01c 573d 1abc b5be 7294 203d c00f 9ebd
00000170: 6900 993d 1c1f 253d 60b0 bf3e 3fe2 44bd
00000180: b32a db3e 8eff c93e 7b80 d4be 1244 ef3c
00000190: ad21 f53e 3571 4a3f 339d ba3d f0be 75be
000001a0: 6336 953d 25c1 7cbe 3098 e43e 492f d93e
000001b0: 7f80 833d 2da8 1abd d78d 98be e9fd d2bd
000001c0: bec6 34bd 45d8 e3be bc52 32be b2f7 10bc
000001d0: ec26 6b3d fe7d d73c 8435 e7be 8490 9c3d
000001e0: 359e 813c 15c4 c4bd 6931 f33e 8d84 54be
000001f0: 4393 88be 0033 83bc e2aa d0be 38bc 6bbe
00000200: d0da c9bd e2c9 12be c18b de3e 9e4c 24be
00000210: 798e 54bf 5d43 8ebe a850 7bbe b669 cebc
00000220: dab7 10bd d7ab 093e 2bf5 43be d027 90be
00000230: 670e 883e c86a 023c bdba 263e c77f 123e
00000240: 34ba 02be 482e 073f 5a26 223e d182 4a3e
00000250: 5420 ff3d e681 8a3c 9ed1 fb3e 4b11 df3e
00000260: 1ab0 58be 5925 f33b cac6 8f3e a92e c43e
00000270: a490 57be 157a 31be c63e b0be 9eca 7d3e
00000280: a3ad 18bf f57a 2e3e 0b3b 153e 0ac0 4a3d
00000290: a52c 213f 33c4 713e 8098 17be e3d6 6a3e
000002a0: 18e0 d33d 86f1 1e3e 027c f2be 567c 023f
000002b0: 0668 32be 0234 b13d 7230 d2be f7b4 503e
000002c0: 4d86 aa3e 8ed0 8abe faba bfbd 0c7e 7ebe
000002d0: 34ff fdbd f2ab 233e c947 d2be 00d3 08bf
000002e0: 32db 9cbe c377 14bd 8089 3cbe 5aab 6dbe
000002f0: f0f7 8cbc 034c 023e d20e d33e cbad 0c3f
00000300: fee4 233f 14a3 823e 8c77 f4be 3f29 4a3d
00000310: 094e 9cbe 505e f03d 6bb3 d6bd 53fc b9be
00000320: 506d d4bd ca5c ffbd f476 7a3e 71ac e2be
00000330: 283f 39be 320a 29be 3d85 2c3f e7a2 723d
00000340: a04e 91be a78b a4be b9fd e9bd e242 df3e
00000350: 477c 253e ae1f dcbc ff93 1c3f bc56 883d
00000360: 64e2 40be 8722 ad3d af5d 9bbe 48bc d0bc
00000370: f624 863e bb15 ab3d f633 ffbe 2f78 abbe
00000380: 7df6 76bd 2dd5 32be 826e cc3d fea4 06be
00000390: aa96 603f c73a 2bbf 5173 8bbd ad79 153e
000003a0: b01f 2dbd 1b26 acbd 479e 0cbf e660 553e
000003b0: 9e78 19be 9e92 a43d 7e1d 6fbe e9ee 20be
000003c0: e18a 6fbd fb5b 4c3e 85d5 00be 8798 b2be
000003d0: 5a3e c23d e1fc 91bd 16fb bdbd f370 a4be
000003e0: 3dae df3e e1c2 5c3e af34 d5be e9d0 1abe
000003f0: f977 a23e d216 38bd 2d3b 863f 4ede 99be
-0.90180814 -0.09959823 0.61281806 0.0932657 -0.50080323 0.28236985 0.12811825 0.29425663
-0.08148866 0.15112294 -0.07928765 -0.024502764 0.3788726 -0.21213253 -0.48974943 -0.29724464
-0.10075337 -0.05324011 -0.44922435 -0.35751843 0.0059038494 -0.1001143 -0.5844727 0.045270037
-0.01231376 -0.34876224 0.37099358 -0.104579866 -0.05401366 -0.16266462 -0.44999605 0.712605
0.15001062 -0.50995696 -0.24895327 -0.01756022 -0.5903084 -0.1139762 -0.012500851 0.25695395
0.07889826 0.10375932 0.8774556 -0.27885863 -0.20736085 0.1457943 0.47798127 0.05178906
0.11548676 0.45716745 0.89664984 0.38869116 -0.14396095 -0.16723377 -0.6675793 0.21296738
0.14317772 0.16980645 -0.5510479 -0.11707675 0.1835443 0.15194464 -0.20044214 -0.67725646
0.38012803 0.39301148 -0.17454667 -0.09498369 0.2602486 -0.5552627 0.13814378 -0.18554899
-0.0026955812 -0.111265875 -0.9399093 -0.05890875 -0.18311223 -0.10613473 0.27094626 0.13405241
0.019138636 -0.40164506 -0.46116695 -0.103647955 0.07422341 -0.16354656 0.984651 0.15681086
0.052517653 -0.35495073 0.03920407 -0.07717848 0.07470781 0.04031287 0.3743925 -0.048067328
0.42806014 0.39452785 -0.41504273 0.029207263 0.47877255 0.7907899 0.091120146 -0.23998618
0.07285764 -0.24683054 0.4464736 0.42418888 0.06420993 -0.03775804 -0.29795715 -0.10302336
-0.044134848 -0.44500938 -0.17414373 -0.008848118 0.057410166 0.026305195 -0.45158017 0.07644752
0.01582251 -0.09607712 0.47498634 -0.20753689 -0.26674852 -0.01601553 -0.40755373 -0.23021019
-0.09856188 -0.14334825 0.43466 -0.16044852 -0.83029896 -0.2778577 -0.24542487 -0.025196891
-0.035331585 0.13444458 -0.19136493 -0.28155375 0.26573488 0.007960029 0.16282173 0.14306556
-0.12766343 0.52804995 0.15834942 0.19776465 0.12457338 0.016907644 0.49183363 0.4356788
-0.21160927 0.0074202237 0.28081352 0.3831685 -0.2105127 -0.17331727 -0.34422892 0.24784324
-0.5963995 0.17039092 0.14573304 0.04949955 0.6295875 0.2361 -0.14804268 0.22933535
0.10345477 0.15521821 -0.47360235 0.5097097 -0.17422494 0.08652498 -0.41052586 0.20381533
0.33305588 -0.2711224 -0.09361835 -0.2485277 -0.12402192 0.1598356 -0.41070393 -0.5344696
-0.30635983 -0.036247026 -0.18411827 -0.23209897 -0.01720807 0.12724309 0.41222245 0.5495269
0.6402129 0.25515044 -0.47747457 0.04935574 -0.30528286 0.11736739 -0.1048344 -0.3632532
-0.10372412 -0.1246887 0.2445944 -0.44272187 -0.18090498 -0.16507795 0.67390805 0.059237387
-0.283803 -0.32137796 -0.11425347 0.43605715 0.1616069 -0.026870575 0.61163324 0.06657168
-0.18836361 0.08453851 -0.30344912 -0.025480404 0.26200074 0.08353754 -0.4984433 -0.3349013
-0.060293663 -0.17464133 0.09982015 -0.13148877 0.87729895 -0.6688656 -0.06809104 0.14597197
-0.042266548 -0.084057055 -0.5492901 0.20837745 -0.14987418 0.080357775 -0.23351094 -0.15716137
-0.058482055 0.19956963 -0.12581451 -0.34881994 0.09484549 -0.07128311 -0.092764065 -0.32117423
0.4368762 0.21558715 -0.41641757 -0.15118755 0.31732157 -0.04494364 1.0486809 -0.30052418

fc_layer.4.bias f4 [8]
00000000: f480 2bbe d94d 5ebe 89f1 10bd 0b92 bf3d
00000010: 28cc 6e3e 0bce 89be 619a 823c 1ec9 d13e
-0.1674841 -0.21709384 -0.035386596 0.09354027 0.23320067 -0.2691501 0.015942754 0.40973753
